model='gemma2' system='our' seqlen=2048 layer_num=None
input_names=['q', 'k', 'v']
output_names=['out']
graph main_graph (
  %q[FLOAT16, 1x2048x32x128]
  %k[FLOAT16, 1x2048x32x128]
  %v[FLOAT16, 1x2048x32x128]
) {
  %/Constant_output_0 = Constant[value = <Tensor>]()
  %/Constant_1_output_0 = Constant[value = <Scalar Tensor []>]()
  %/Trilu_output_0 = Trilu[upper = 1](%/Constant_output_0, %/Constant_1_output_0)
  %/Transpose_output_0 = Transpose[perm = [0, 2, 1, 3]](%q)
  %/Transpose_1_output_0 = Transpose[perm = [0, 2, 1, 3]](%v)
  %/Transpose_2_output_0 = Transpose[perm = [0, 2, 3, 1]](%k)
  %/MatMul_output_0 = MatMul(%/Transpose_output_0, %/Transpose_2_output_0)
  %/Constant_2_output_0 = Constant[value = <Scalar Tensor []>]()
  %/Div_output_0 = Div(%/MatMul_output_0, %/Constant_2_output_0)
  %/Constant_3_output_0 = Constant[value = <Scalar Tensor []>]()
  %/Div_1_output_0 = Div(%/Div_output_0, %/Constant_3_output_0)
  %/Tanh_output_0 = Tanh(%/Div_1_output_0)
  %/Constant_4_output_0 = Constant[value = <Scalar Tensor []>]()
  %/Mul_output_0 = Mul(%/Tanh_output_0, %/Constant_4_output_0)
  %/Add_output_0 = Add(%/Mul_output_0, %/Trilu_output_0)
  %/Cast_output_0 = Cast[to = 1](%/Add_output_0)
  %/Softmax_output_0 = Softmax[axis = -1](%/Cast_output_0)
  %/Cast_1_output_0 = Cast[to = 10](%/Softmax_output_0)
  %/MatMul_1_output_0 = MatMul(%/Cast_1_output_0, %/Transpose_1_output_0)
  %/Transpose_3_output_0 = Transpose[perm = [0, 2, 1, 3]](%/MatMul_1_output_0)
  %/Constant_5_output_0 = Constant[value = <Tensor>]()
  %out = Reshape[allowzero = 0](%/Transpose_3_output_0, %/Constant_5_output_0)
  return %out
}
/data2/ldz/FlashTensor-AE/3rd/asuka/.py-build-cmake_cache/cp310-cp310-linux_x86_64/editable/asuka/translate.py:217: UserWarning: The given NumPy array is not writable, and PyTorch does not support non-writable tensors. This means writing to this tensor will result in undefined behavior. You may want to copy the array to protect its data or make it writable before converting it to a tensor. This type of warning will be suppressed for the rest of this program. (Triggered internally at ../torch/csrc/utils/tensor_numpy.cpp:206.)
  operand_torch = torch.from_numpy(operand)
module {
  func.func @Gemma2(%arg0: tensor<1x2048x32x128xf16>, %arg1: tensor<1x2048x32x128xf16>, %arg2: tensor<1x2048x32x128xf16>) -> tensor<1x2048x32x128xf16> {
    %0 = asuka.trilu diagonal = 1, is_upper = true, shape = [2048, 2048], val = 0xFC00 : f16
    %1 = asuka.permute %arg0, dims = [0, 2, 1, 3] : (tensor<1x2048x32x128xf16>) -> tensor<1x32x2048x128xf16>
    %2 = asuka.permute %arg2, dims = [0, 2, 1, 3] : (tensor<1x2048x32x128xf16>) -> tensor<1x32x2048x128xf16>
    %3 = asuka.permute %arg1, dims = [0, 2, 3, 1] : (tensor<1x2048x32x128xf16>) -> tensor<1x32x128x2048xf16>
    %4 = asuka.dot %1, %3 : (tensor<1x32x2048x128xf16>, tensor<1x32x128x2048xf16>) -> tensor<1x32x2048x2048xf16>
    %cst = arith.constant dense<1.131250e+01> : tensor<1xf16>
    %5 = asuka.div %4, %cst : (tensor<1x32x2048x2048xf16>, tensor<1xf16>) -> tensor<1x32x2048x2048xf16>
    %cst_0 = arith.constant dense<5.000000e+01> : tensor<1xf16>
    %6 = asuka.div %5, %cst_0 : (tensor<1x32x2048x2048xf16>, tensor<1xf16>) -> tensor<1x32x2048x2048xf16>
    %7 = asuka.tanh %6 : (tensor<1x32x2048x2048xf16>) -> tensor<1x32x2048x2048xf16>
    %cst_1 = arith.constant dense<5.000000e+01> : tensor<1xf16>
    %8 = asuka.mul %7, %cst_1 : (tensor<1x32x2048x2048xf16>, tensor<1xf16>) -> tensor<1x32x2048x2048xf16>
    %9 = asuka.add %8, %0 : (tensor<1x32x2048x2048xf16>, tensor<2048x2048xf16>) -> tensor<1x32x2048x2048xf16>
    %10 = asuka.convert %9, type = f32 : (tensor<1x32x2048x2048xf16>) -> tensor<1x32x2048x2048xf32>
    %11 = asuka.softmax %10, dim = -1 : (tensor<1x32x2048x2048xf32>) -> tensor<1x32x2048x2048xf32>
    %12 = asuka.convert %11, type = f16 : (tensor<1x32x2048x2048xf32>) -> tensor<1x32x2048x2048xf16>
    %13 = asuka.dot %12, %2 : (tensor<1x32x2048x2048xf16>, tensor<1x32x2048x128xf16>) -> tensor<1x32x2048x128xf16>
    %14 = asuka.permute %13, dims = [0, 2, 1, 3] : (tensor<1x32x2048x128xf16>) -> tensor<1x2048x32x128xf16>
    %15 = asuka.reshape %14 : (tensor<1x2048x32x128xf16>) -> tensor<1x2048x32x128xf16>
    return %15 : tensor<1x2048x32x128xf16>
  }
}
idx=0 arith.constant
idx=1 arith.constant
idx=2 asuka.trilu
idx=3 asuka.permute
idx=4 asuka.permute
idx=5 asuka.permute
idx=6 asuka.dot
idx=7 asuka.div
idx=8 asuka.div
idx=9 asuka.tanh
idx=10 asuka.mul
idx=11 asuka.add
idx=12 asuka.convert
idx=13 asuka.exp
idx=14 asuka.reduce
idx=15 asuka.div
idx=16 asuka.convert
idx=17 asuka.dot
idx=18 asuka.permute
len(connected_partitions)=1370
pruning bad partition(provide_output=False):   0%|          | 0/1370 [00:00<?, ?it/s]pruning bad partition(provide_output=False):  14%|█▍        | 194/1370 [00:00<00:00, 1927.47it/s]pruning bad partition(provide_output=False):  29%|██▊       | 392/1370 [00:00<00:00, 1955.27it/s]pruning bad partition(provide_output=False):  44%|████▎     | 598/1370 [00:00<00:00, 2001.70it/s]pruning bad partition(provide_output=False):  58%|█████▊    | 799/1370 [00:00<00:00, 1983.68it/s]pruning bad partition(provide_output=False):  74%|███████▎  | 1010/1370 [00:00<00:00, 2027.31it/s]pruning bad partition(provide_output=False):  89%|████████▉ | 1218/1370 [00:00<00:00, 2043.25it/s]pruning bad partition(provide_output=False): 100%|██████████| 1370/1370 [00:00<00:00, 2020.04it/s]
after pruning bad partition: len(connected_partitions)=139
pruning bad para partition:   0%|          | 0/139 [00:00<?, ?it/s]pruning bad para partition:  40%|███▉      | 55/139 [00:00<00:00, 543.76it/s]pruning bad para partition:  82%|████████▏ | 114/139 [00:00<00:00, 560.33it/s]pruning bad para partition: 100%|██████████| 139/139 [00:00<00:00, 569.29it/s]
after pruning bad para partition: len(connected_partitions)=127
max_metric:  134217728.0
tall_and_thin tensors: 7
expand and pruning bad ai partition:   0%|          | 0/127 [00:00<?, ?it/s]expand and pruning bad ai partition:  11%|█         | 14/127 [00:00<00:00, 130.05it/s]expand and pruning bad ai partition:  22%|██▏       | 28/127 [00:01<00:06, 14.89it/s] expand and pruning bad ai partition:  27%|██▋       | 34/127 [00:04<00:15,  6.03it/s]expand and pruning bad ai partition:  30%|██▉       | 38/127 [00:04<00:13,  6.57it/s]expand and pruning bad ai partition:  46%|████▌     | 58/127 [00:04<00:04, 15.27it/s]expand and pruning bad ai partition:  55%|█████▌    | 70/127 [00:04<00:02, 20.63it/s]expand and pruning bad ai partition:  83%|████████▎ | 106/127 [00:05<00:00, 45.80it/s]expand and pruning bad ai partition:  96%|█████████▌| 122/127 [00:05<00:00, 54.21it/s]expand and pruning bad ai partition: 100%|██████████| 127/127 [00:05<00:00, 24.32it/s]
after expand and pruning bad ai partition: len(connected_partitions)=16
pruning bad partition(provide_output=True):   0%|          | 0/16 [00:00<?, ?it/s]pruning bad partition(provide_output=True): 100%|██████████| 16/16 [00:00<00:00, 1853.99it/s]
after pruning bad partition(provide_output=True): len(connected_partitions)=4
module {
  func.func @Gemma2(%arg0: tensor<1x2048x32x128xf16>, %arg1: tensor<1x2048x32x128xf16>, %arg2: tensor<1x2048x32x128xf16>) -> tensor<1x2048x32x128xf16> {
    %cst = arith.constant dense<5.000000e+01> : tensor<1xf16>
    %cst_0 = arith.constant dense<1.131250e+01> : tensor<1xf16>
    %0 = asuka.trilu diagonal = 1, is_upper = true, shape = [2048, 2048], val = 0xFC00 : f16
    %1 = asuka.permute %arg0, dims = [0, 2, 1, 3] : (tensor<1x2048x32x128xf16>) -> tensor<1x32x2048x128xf16>
    %2 = asuka.permute %arg2, dims = [0, 2, 1, 3] : (tensor<1x2048x32x128xf16>) -> tensor<1x32x2048x128xf16>
    %3 = asuka.permute %arg1, dims = [0, 2, 3, 1] : (tensor<1x2048x32x128xf16>) -> tensor<1x32x128x2048xf16>
    %4 = asuka.dot %1, %3 : (tensor<1x32x2048x128xf16>, tensor<1x32x128x2048xf16>) -> tensor<1x32x2048x2048xf16>
    %5 = asuka.div %4, %cst_0 : (tensor<1x32x2048x2048xf16>, tensor<1xf16>) -> tensor<1x32x2048x2048xf16>
    %6 = asuka.div %5, %cst : (tensor<1x32x2048x2048xf16>, tensor<1xf16>) -> tensor<1x32x2048x2048xf16>
    %7 = asuka.tanh %6 : (tensor<1x32x2048x2048xf16>) -> tensor<1x32x2048x2048xf16>
    %8 = asuka.mul %7, %cst : (tensor<1x32x2048x2048xf16>, tensor<1xf16>) -> tensor<1x32x2048x2048xf16>
    %9 = asuka.add %8, %0 : (tensor<1x32x2048x2048xf16>, tensor<2048x2048xf16>) -> tensor<1x32x2048x2048xf16>
    %10 = asuka.convert %9, type = f32 : (tensor<1x32x2048x2048xf16>) -> tensor<1x32x2048x2048xf32>
    %11 = asuka.exp %10 : (tensor<1x32x2048x2048xf32>) -> tensor<1x32x2048x2048xf32>
    %12 = asuka.reduce(%11), dim = -1, op =  ADD, keep_dim = true : (tensor<1x32x2048x2048xf32>) -> tensor<1x32x2048x1xf32>
    %13 = asuka.div %11, %12 : (tensor<1x32x2048x2048xf32>, tensor<1x32x2048x1xf32>) -> tensor<1x32x2048x2048xf32>
    %14 = asuka.convert %13, type = f16 : (tensor<1x32x2048x2048xf32>) -> tensor<1x32x2048x2048xf16>
    %15 = asuka.dot %14, %2 : (tensor<1x32x2048x2048xf16>, tensor<1x32x2048x128xf16>) -> tensor<1x32x2048x128xf16>
    %16 = asuka.permute %15, dims = [0, 2, 1, 3] : (tensor<1x32x2048x128xf16>) -> tensor<1x2048x32x128xf16>
    return %16 : tensor<1x2048x32x128xf16>
  }
  asuka.kernel @Gemma2_p0(%arg0: tensor<1x2048x32x128xf16>, %arg1: tensor<1x2048x32x128xf16>, %arg2: tensor<1x2048x32x128xf16>, %arg3: tensor<1x32x2048x1xf32>) -> tensor<1x2048x32x128xf16> {
    %cst = arith.constant dense<5.000000e+01> : tensor<1xf16>
    %cst_0 = arith.constant dense<1.131250e+01> : tensor<1xf16>
    %0 = asuka.trilu diagonal = 1, is_upper = true, shape = [2048, 2048], val = 0xFC00 : f16
    %1 = asuka.permute %arg0, dims = [0, 2, 1, 3] : (tensor<1x2048x32x128xf16>) -> tensor<1x32x2048x128xf16>
    %2 = asuka.permute %arg1, dims = [0, 2, 1, 3] : (tensor<1x2048x32x128xf16>) -> tensor<1x32x2048x128xf16>
    %3 = asuka.permute %arg2, dims = [0, 2, 3, 1] : (tensor<1x2048x32x128xf16>) -> tensor<1x32x128x2048xf16>
    %4 = asuka.dot %1, %3 : (tensor<1x32x2048x128xf16>, tensor<1x32x128x2048xf16>) -> tensor<1x32x2048x2048xf16>
    %5 = asuka.div %4, %cst_0 : (tensor<1x32x2048x2048xf16>, tensor<1xf16>) -> tensor<1x32x2048x2048xf16>
    %6 = asuka.div %5, %cst : (tensor<1x32x2048x2048xf16>, tensor<1xf16>) -> tensor<1x32x2048x2048xf16>
    %7 = asuka.tanh %6 : (tensor<1x32x2048x2048xf16>) -> tensor<1x32x2048x2048xf16>
    %8 = asuka.mul %7, %cst : (tensor<1x32x2048x2048xf16>, tensor<1xf16>) -> tensor<1x32x2048x2048xf16>
    %9 = asuka.add %8, %0 : (tensor<1x32x2048x2048xf16>, tensor<2048x2048xf16>) -> tensor<1x32x2048x2048xf16>
    %10 = asuka.convert %9, type = f32 : (tensor<1x32x2048x2048xf16>) -> tensor<1x32x2048x2048xf32>
    %11 = asuka.exp %10 : (tensor<1x32x2048x2048xf32>) -> tensor<1x32x2048x2048xf32>
    %12 = asuka.div %11, %arg3 : (tensor<1x32x2048x2048xf32>, tensor<1x32x2048x1xf32>) -> tensor<1x32x2048x2048xf32>
    %13 = asuka.convert %12, type = f16 : (tensor<1x32x2048x2048xf32>) -> tensor<1x32x2048x2048xf16>
    %14 = asuka.dot %13, %2 : (tensor<1x32x2048x2048xf16>, tensor<1x32x2048x128xf16>) -> tensor<1x32x2048x128xf16>
    %15 = asuka.permute %14, dims = [0, 2, 1, 3] : (tensor<1x32x2048x128xf16>) -> tensor<1x2048x32x128xf16>
    asuka.return %15 : tensor<1x2048x32x128xf16>
  }
  asuka.kernel @Gemma2_p1(%arg0: tensor<1x2048x32x128xf16>, %arg1: tensor<1x2048x32x128xf16>) -> tensor<1x32x2048x1xf32> {
    %cst = arith.constant dense<5.000000e+01> : tensor<1xf16>
    %cst_0 = arith.constant dense<1.131250e+01> : tensor<1xf16>
    %0 = asuka.trilu diagonal = 1, is_upper = true, shape = [2048, 2048], val = 0xFC00 : f16
    %1 = asuka.permute %arg0, dims = [0, 2, 1, 3] : (tensor<1x2048x32x128xf16>) -> tensor<1x32x2048x128xf16>
    %2 = asuka.permute %arg1, dims = [0, 2, 3, 1] : (tensor<1x2048x32x128xf16>) -> tensor<1x32x128x2048xf16>
    %3 = asuka.dot %1, %2 : (tensor<1x32x2048x128xf16>, tensor<1x32x128x2048xf16>) -> tensor<1x32x2048x2048xf16>
    %4 = asuka.div %3, %cst_0 : (tensor<1x32x2048x2048xf16>, tensor<1xf16>) -> tensor<1x32x2048x2048xf16>
    %5 = asuka.div %4, %cst : (tensor<1x32x2048x2048xf16>, tensor<1xf16>) -> tensor<1x32x2048x2048xf16>
    %6 = asuka.tanh %5 : (tensor<1x32x2048x2048xf16>) -> tensor<1x32x2048x2048xf16>
    %7 = asuka.mul %6, %cst : (tensor<1x32x2048x2048xf16>, tensor<1xf16>) -> tensor<1x32x2048x2048xf16>
    %8 = asuka.add %7, %0 : (tensor<1x32x2048x2048xf16>, tensor<2048x2048xf16>) -> tensor<1x32x2048x2048xf16>
    %9 = asuka.convert %8, type = f32 : (tensor<1x32x2048x2048xf16>) -> tensor<1x32x2048x2048xf32>
    %10 = asuka.exp %9 : (tensor<1x32x2048x2048xf32>) -> tensor<1x32x2048x2048xf32>
    %11 = asuka.reduce(%10), dim = -1, op =  ADD, keep_dim = true : (tensor<1x32x2048x2048xf32>) -> tensor<1x32x2048x1xf32>
    asuka.return %11 : tensor<1x32x2048x1xf32>
  }
  asuka.kernel @Gemma2_p2(%arg0: tensor<1x2048x32x128xf16>, %arg1: tensor<1x2048x32x128xf16>, %arg2: tensor<1x2048x32x128xf16>) -> tensor<1x2048x32x128xf16> {
    %cst = arith.constant dense<5.000000e+01> : tensor<1xf16>
    %cst_0 = arith.constant dense<1.131250e+01> : tensor<1xf16>
    %0 = asuka.trilu diagonal = 1, is_upper = true, shape = [2048, 2048], val = 0xFC00 : f16
    %1 = asuka.permute %arg0, dims = [0, 2, 1, 3] : (tensor<1x2048x32x128xf16>) -> tensor<1x32x2048x128xf16>
    %2 = asuka.permute %arg1, dims = [0, 2, 1, 3] : (tensor<1x2048x32x128xf16>) -> tensor<1x32x2048x128xf16>
    %3 = asuka.permute %arg2, dims = [0, 2, 3, 1] : (tensor<1x2048x32x128xf16>) -> tensor<1x32x128x2048xf16>
    %4 = asuka.dot %1, %3 : (tensor<1x32x2048x128xf16>, tensor<1x32x128x2048xf16>) -> tensor<1x32x2048x2048xf16>
    %5 = asuka.div %4, %cst_0 : (tensor<1x32x2048x2048xf16>, tensor<1xf16>) -> tensor<1x32x2048x2048xf16>
    %6 = asuka.div %5, %cst : (tensor<1x32x2048x2048xf16>, tensor<1xf16>) -> tensor<1x32x2048x2048xf16>
    %7 = asuka.tanh %6 : (tensor<1x32x2048x2048xf16>) -> tensor<1x32x2048x2048xf16>
    %8 = asuka.mul %7, %cst : (tensor<1x32x2048x2048xf16>, tensor<1xf16>) -> tensor<1x32x2048x2048xf16>
    %9 = asuka.add %8, %0 : (tensor<1x32x2048x2048xf16>, tensor<2048x2048xf16>) -> tensor<1x32x2048x2048xf16>
    %10 = asuka.convert %9, type = f32 : (tensor<1x32x2048x2048xf16>) -> tensor<1x32x2048x2048xf32>
    %11 = asuka.exp %10 : (tensor<1x32x2048x2048xf32>) -> tensor<1x32x2048x2048xf32>
    %12 = asuka.reduce(%11), dim = -1, op =  ADD, keep_dim = true : (tensor<1x32x2048x2048xf32>) -> tensor<1x32x2048x1xf32>
    %13 = asuka.div %11, %12 : (tensor<1x32x2048x2048xf32>, tensor<1x32x2048x1xf32>) -> tensor<1x32x2048x2048xf32>
    %14 = asuka.convert %13, type = f16 : (tensor<1x32x2048x2048xf32>) -> tensor<1x32x2048x2048xf16>
    %15 = asuka.dot %14, %2 : (tensor<1x32x2048x2048xf16>, tensor<1x32x2048x128xf16>) -> tensor<1x32x2048x128xf16>
    %16 = asuka.permute %15, dims = [0, 2, 1, 3] : (tensor<1x32x2048x128xf16>) -> tensor<1x2048x32x128xf16>
    asuka.return %16 : tensor<1x2048x32x128xf16>
  }
  asuka.kernel @Gemma2_p3(%arg0: tensor<1x2048x32x128xf16>, %arg1: tensor<1x2048x32x128xf16>, %arg2: tensor<1x2048x32x128xf16>) -> (tensor<1x32x2048x1xf32>, tensor<1x2048x32x128xf16>) {
    %cst = arith.constant dense<5.000000e+01> : tensor<1xf16>
    %cst_0 = arith.constant dense<1.131250e+01> : tensor<1xf16>
    %0 = asuka.trilu diagonal = 1, is_upper = true, shape = [2048, 2048], val = 0xFC00 : f16
    %1 = asuka.permute %arg0, dims = [0, 2, 1, 3] : (tensor<1x2048x32x128xf16>) -> tensor<1x32x2048x128xf16>
    %2 = asuka.permute %arg1, dims = [0, 2, 1, 3] : (tensor<1x2048x32x128xf16>) -> tensor<1x32x2048x128xf16>
    %3 = asuka.permute %arg2, dims = [0, 2, 3, 1] : (tensor<1x2048x32x128xf16>) -> tensor<1x32x128x2048xf16>
    %4 = asuka.dot %1, %3 : (tensor<1x32x2048x128xf16>, tensor<1x32x128x2048xf16>) -> tensor<1x32x2048x2048xf16>
    %5 = asuka.div %4, %cst_0 : (tensor<1x32x2048x2048xf16>, tensor<1xf16>) -> tensor<1x32x2048x2048xf16>
    %6 = asuka.div %5, %cst : (tensor<1x32x2048x2048xf16>, tensor<1xf16>) -> tensor<1x32x2048x2048xf16>
    %7 = asuka.tanh %6 : (tensor<1x32x2048x2048xf16>) -> tensor<1x32x2048x2048xf16>
    %8 = asuka.mul %7, %cst : (tensor<1x32x2048x2048xf16>, tensor<1xf16>) -> tensor<1x32x2048x2048xf16>
    %9 = asuka.add %8, %0 : (tensor<1x32x2048x2048xf16>, tensor<2048x2048xf16>) -> tensor<1x32x2048x2048xf16>
    %10 = asuka.convert %9, type = f32 : (tensor<1x32x2048x2048xf16>) -> tensor<1x32x2048x2048xf32>
    %11 = asuka.exp %10 : (tensor<1x32x2048x2048xf32>) -> tensor<1x32x2048x2048xf32>
    %12 = asuka.reduce(%11), dim = -1, op =  ADD, keep_dim = true : (tensor<1x32x2048x2048xf32>) -> tensor<1x32x2048x1xf32>
    %13 = asuka.div %11, %12 : (tensor<1x32x2048x2048xf32>, tensor<1x32x2048x1xf32>) -> tensor<1x32x2048x2048xf32>
    %14 = asuka.convert %13, type = f16 : (tensor<1x32x2048x2048xf32>) -> tensor<1x32x2048x2048xf16>
    %15 = asuka.dot %14, %2 : (tensor<1x32x2048x2048xf16>, tensor<1x32x2048x128xf16>) -> tensor<1x32x2048x128xf16>
    %16 = asuka.permute %15, dims = [0, 2, 1, 3] : (tensor<1x32x2048x128xf16>) -> tensor<1x2048x32x128xf16>
    asuka.return %12, %16 : tensor<1x32x2048x1xf32>, tensor<1x2048x32x128xf16>
  }
}
optimize Gemma2_p0
optimize Gemma2_p1
optimize Gemma2_p2
optimize Gemma2_p3
tuning time: 7.303820610046387 sec
Skip op: func.func
path: /tmp/tmpjmiwgxcj.py
profiling...
out_str='[Gemma2_p0] avg_ms: 0.6372565031051636\n[Gemma2_p1] avg_ms: 0.4362539052963257\n[Gemma2_p2] avg_ms: 0.635511577129364\n[Gemma2_p3] avg_ms: 0.6417679190635681\n'
[Gemma2_p0] avg_ms: 0.6372565031051636
[Gemma2_p1] avg_ms: 0.4362539052963257
[Gemma2_p2] avg_ms: 0.635511577129364
[Gemma2_p3] avg_ms: 0.6417679190635681
best_kernel:

Gemma2_p2
best_time=0.635511577129364
import math
import torch
import torch.nn as nn
import torch.nn.functional as F
import triton
import triton.language as tl
from typing import Callable, Any, Optional, Tuple

def bench_Gemma2_p2():
  dev = torch.cuda.current_device()
  rand_arg_0 = torch.randn(1, 2048, 32, 128, dtype=torch.float16, device=dev)
  rand_arg_1 = torch.randn(1, 2048, 32, 128, dtype=torch.float16, device=dev)
  rand_arg_2 = torch.randn(1, 2048, 32, 128, dtype=torch.float16, device=dev)
  avg_ms = triton.testing.do_bench(lambda: Gemma2_p2(rand_arg_0, rand_arg_1, rand_arg_2))
  print('[Gemma2_p2] avg_ms:', avg_ms)

def Gemma2_p2(arg0: torch.Tensor, arg1: torch.Tensor, arg2: torch.Tensor) -> torch.Tensor:
  dev = arg0.device
  autotune_key = torch.cuda.get_device_capability(dev)[0]
  tensor_0 = arg0
  tensor_1 = arg1
  tensor_2 = arg2
  empty_ptr_3 = torch.empty(1, 2048, 32, 128, dtype=torch.float16, device=dev)
  grid = (1, 16, 32)
  Gemma2_p2_kernel[grid](tensor_0, tensor_1, tensor_2, empty_ptr_3, autotune_key)
  tensor_4 = empty_ptr_3
  return tensor_4

@triton.autotune(configs=[
  triton.Config({}, num_warps=4),
  triton.Config({}, num_warps=8),
], key=['autotune_key'])
@triton.jit
def Gemma2_p2_kernel(
  arg_0,
  arg_1,
  arg_2,
  arg_3,
  autotune_key,
):
  pid_4 = tl.program_id(0)
  pid_5 = tl.program_id(1)
  pid_6 = tl.program_id(2)
  const_7 = 1.131250e+01
  const_8 = 5.000000e+01
  const_9 = 1.442695e+00
  const_10 = float('-inf')
  const_11 = 0.000000e+00
  const_12 = 0
  const_13 = 1
  const_14 = 4096
  const_15 = 128
  mul_16 = pid_5 * const_15
  mul_17 = mul_16 * const_14
  mul_18 = pid_6 * const_15
  add_19 = mul_17 + mul_18
  block_ptr_20 = tl.make_block_ptr(
    base=arg_0 + add_19,
    shape=(128, 128,),
    strides=(4096, 1,),
    offsets=(0, 0,),
    block_shape=(128, 128,),
    order=(1, 0,),
  )
  block_load_21 = tl.load(block_ptr_20)
  block_ptr_22 = tl.make_block_ptr(
    base=arg_3 + add_19,
    shape=(128, 128,),
    strides=(4096, 1,),
    offsets=(0, 0,),
    block_shape=(128, 128,),
    order=(1, 0,),
  )
  converted_23 = const_7
  div_24 = block_load_21 / converted_23
  div_24 = div_24.to(tl.float16)
  converted_25 = const_8
  div_26 = div_24 / converted_25
  div_26 = div_26.to(tl.float16)
  zero_27 = tl.zeros([128, 128], dtype=tl.float32)
  zero_28 = tl.zeros([128, 1], dtype=tl.float32)
  add_29 = mul_16 + const_15
  block_ptr_30 = tl.make_block_ptr(
    base=arg_2 + mul_18,
    shape=(128, 2048,),
    strides=(1, 4096,),
    offsets=(0, 0,),
    block_shape=(128, 128,),
    order=(0, 1,),
  )
  block_ptr_31 = tl.make_block_ptr(
    base=arg_1 + mul_18,
    shape=(2048, 128,),
    strides=(4096, 1,),
    offsets=(0, 0,),
    block_shape=(128, 128,),
    order=(1, 0,),
  )
  for i_32 in range(const_12, add_29, const_15):
    block_load_33 = tl.load(block_ptr_30)
    block_load_34 = tl.load(block_ptr_31)
    dot_35 = tl.dot(div_26, block_load_33)
    where_36 = tl.zeros([128, 128], dtype=tl.float32)
    where_36 = tl.where(mul_16 + tl.arange(0, 128)[:, None] >= i_32 + tl.arange(0, 128)[None, :], where_36, float('-inf'))
    tanh_37 = tl.inline_asm_elementwise(
      asm='tanh.approx.f32 $0, $1;',
      constraints=('=r,r'),
      args=[dot_35],
      dtype=(tl.float32,),
      is_pure=True,
      pack=1,
    )
    mul_38 = tanh_37 * const_8
    mul_39 = mul_38 * const_9
    add_40 = mul_39 + where_36
    exp2_41 = tl.math.exp2(add_40)
    reduce_sum_42 = tl.sum(exp2_41, axis=1, keep_dims=True).to(tl.float32)
    reduce_sum_42 += zero_28
    converted_43 = exp2_41.to(tl.float16)
    dot_44 = tl.dot(converted_43, block_load_34)
    add_45 = zero_27 + dot_44
    block_advance_46 = tl.advance(block_ptr_30, (0, 128,))
    block_advance_47 = tl.advance(block_ptr_31, (128, 0,))
    block_ptr_30 = block_advance_46
    block_ptr_31 = block_advance_47
    zero_27 = add_45
    zero_28 = reduce_sum_42
  div_48 = zero_27 / zero_28
  converted_49 = div_48.to(tl.float16)
  block_store_50 = tl.store(block_ptr_22, converted_49)

def Gemma2(arg_0, arg_1, arg_2):
  k0_out_0 = Gemma2_p2(arg_0, arg_2, arg_1)
  return k0_out_0

write code to /tmp/tmp8ihnc9_w.py
weight_zoo_path='/data2/ldz/FlashTensor-AE/weight_zoo.json'
hf_config.num_hidden_layers=32
data_path='/data2/ldz/FlashTensor-AE/vcsum.jsonl'
token_ids.shape=torch.Size([1, 2048])
token_ids.grad=None
using safe tensor: files={'model-00002-of-00002.safetensors', 'model-00001-of-00002.safetensors'}
  0%|          | 0/2 [00:00<?, ?it/s]100%|██████████| 2/2 [00:00<00:00, 98.75it/s]
  0%|          | 0/32 [00:00<?, ?it/s] 22%|██▏       | 7/32 [00:00<00:00, 61.05it/s] 44%|████▍     | 14/32 [00:00<00:00, 61.54it/s] 66%|██████▌   | 21/32 [00:00<00:00, 62.20it/s] 88%|████████▊ | 28/32 [00:00<00:00, 60.33it/s]100%|██████████| 32/32 [00:00<00:00, 60.79it/s]
warmup start
warmup done
[our] avg 414.8034 ms, min 412.9758 ms, max 416.8162 ms (50 runs, 50 warmups, profiled)
