model='attn' system='our' seqlen=2048 layer_num=None
input_names=['q', 'k', 'v']
output_names=['out']
graph main_graph (
  %q[FLOAT16, 1x2048x32x128]
  %k[FLOAT16, 1x2048x32x128]
  %v[FLOAT16, 1x2048x32x128]
) {
  %/Constant_output_0 = Constant[value = <Tensor>]()
  %/Constant_1_output_0 = Constant[value = <Scalar Tensor []>]()
  %/Trilu_output_0 = Trilu[upper = 1](%/Constant_output_0, %/Constant_1_output_0)
  %/Transpose_output_0 = Transpose[perm = [0, 2, 1, 3]](%q)
  %/Transpose_1_output_0 = Transpose[perm = [0, 2, 1, 3]](%v)
  %/Transpose_2_output_0 = Transpose[perm = [0, 2, 3, 1]](%k)
  %/MatMul_output_0 = MatMul(%/Transpose_output_0, %/Transpose_2_output_0)
  %/Constant_2_output_0 = Constant[value = <Scalar Tensor []>]()
  %/Div_output_0 = Div(%/MatMul_output_0, %/Constant_2_output_0)
  %/Add_output_0 = Add(%/Div_output_0, %/Trilu_output_0)
  %/Cast_output_0 = Cast[to = 1](%/Add_output_0)
  %/Softmax_output_0 = Softmax[axis = -1](%/Cast_output_0)
  %/Cast_1_output_0 = Cast[to = 10](%/Softmax_output_0)
  %/MatMul_1_output_0 = MatMul(%/Cast_1_output_0, %/Transpose_1_output_0)
  %/Transpose_3_output_0 = Transpose[perm = [0, 2, 1, 3]](%/MatMul_1_output_0)
  %/Constant_3_output_0 = Constant[value = <Tensor>]()
  %out = Reshape[allowzero = 0](%/Transpose_3_output_0, %/Constant_3_output_0)
  return %out
}
/data2/ldz/FlashTensor-AE/3rd/asuka/.py-build-cmake_cache/cp310-cp310-linux_x86_64/editable/asuka/translate.py:217: UserWarning: The given NumPy array is not writable, and PyTorch does not support non-writable tensors. This means writing to this tensor will result in undefined behavior. You may want to copy the array to protect its data or make it writable before converting it to a tensor. This type of warning will be suppressed for the rest of this program. (Triggered internally at ../torch/csrc/utils/tensor_numpy.cpp:206.)
  operand_torch = torch.from_numpy(operand)
module {
  func.func @Attn(%arg0: tensor<1x2048x32x128xf16>, %arg1: tensor<1x2048x32x128xf16>, %arg2: tensor<1x2048x32x128xf16>) -> tensor<1x2048x32x128xf16> {
    %0 = asuka.trilu diagonal = 1, is_upper = true, shape = [2048, 2048], val = 0xFC00 : f16
    %1 = asuka.permute %arg0, dims = [0, 2, 1, 3] : (tensor<1x2048x32x128xf16>) -> tensor<1x32x2048x128xf16>
    %2 = asuka.permute %arg2, dims = [0, 2, 1, 3] : (tensor<1x2048x32x128xf16>) -> tensor<1x32x2048x128xf16>
    %3 = asuka.permute %arg1, dims = [0, 2, 3, 1] : (tensor<1x2048x32x128xf16>) -> tensor<1x32x128x2048xf16>
    %4 = asuka.dot %1, %3 : (tensor<1x32x2048x128xf16>, tensor<1x32x128x2048xf16>) -> tensor<1x32x2048x2048xf16>
    %cst = arith.constant dense<1.131250e+01> : tensor<1xf16>
    %5 = asuka.div %4, %cst : (tensor<1x32x2048x2048xf16>, tensor<1xf16>) -> tensor<1x32x2048x2048xf16>
    %6 = asuka.add %5, %0 : (tensor<1x32x2048x2048xf16>, tensor<2048x2048xf16>) -> tensor<1x32x2048x2048xf16>
    %7 = asuka.convert %6, type = f32 : (tensor<1x32x2048x2048xf16>) -> tensor<1x32x2048x2048xf32>
    %8 = asuka.softmax %7, dim = -1 : (tensor<1x32x2048x2048xf32>) -> tensor<1x32x2048x2048xf32>
    %9 = asuka.convert %8, type = f16 : (tensor<1x32x2048x2048xf32>) -> tensor<1x32x2048x2048xf16>
    %10 = asuka.dot %9, %2 : (tensor<1x32x2048x2048xf16>, tensor<1x32x2048x128xf16>) -> tensor<1x32x2048x128xf16>
    %11 = asuka.permute %10, dims = [0, 2, 1, 3] : (tensor<1x32x2048x128xf16>) -> tensor<1x2048x32x128xf16>
    %12 = asuka.reshape %11 : (tensor<1x2048x32x128xf16>) -> tensor<1x2048x32x128xf16>
    return %12 : tensor<1x2048x32x128xf16>
  }
}
idx=0 arith.constant
idx=1 asuka.trilu
idx=2 asuka.permute
idx=3 asuka.permute
idx=4 asuka.permute
idx=5 asuka.dot
idx=6 asuka.div
idx=7 asuka.add
idx=8 asuka.convert
idx=9 asuka.exp
idx=10 asuka.reduce
idx=11 asuka.div
idx=12 asuka.convert
idx=13 asuka.dot
idx=14 asuka.permute
len(connected_partitions)=423
pruning bad partition(provide_output=False):   0%|          | 0/423 [00:00<?, ?it/s]pruning bad partition(provide_output=False):  63%|██████▎   | 265/423 [00:00<00:00, 2643.72it/s]pruning bad partition(provide_output=False): 100%|██████████| 423/423 [00:00<00:00, 2643.48it/s]
after pruning bad partition: len(connected_partitions)=64
pruning bad para partition:   0%|          | 0/64 [00:00<?, ?it/s]pruning bad para partition: 100%|██████████| 64/64 [00:00<00:00, 670.79it/s]
after pruning bad para partition: len(connected_partitions)=53
max_metric:  134217728.0
tall_and_thin tensors: 6
expand and pruning bad ai partition:   0%|          | 0/53 [00:00<?, ?it/s]expand and pruning bad ai partition:  58%|█████▊    | 31/53 [00:00<00:00, 56.84it/s]expand and pruning bad ai partition:  96%|█████████▌| 51/53 [00:00<00:00, 55.09it/s]expand and pruning bad ai partition: 100%|██████████| 53/53 [00:00<00:00, 57.48it/s]
after expand and pruning bad ai partition: len(connected_partitions)=8
pruning bad partition(provide_output=True):   0%|          | 0/8 [00:00<?, ?it/s]pruning bad partition(provide_output=True): 100%|██████████| 8/8 [00:00<00:00, 1609.40it/s]
after pruning bad partition(provide_output=True): len(connected_partitions)=4
module {
  func.func @Attn(%arg0: tensor<1x2048x32x128xf16>, %arg1: tensor<1x2048x32x128xf16>, %arg2: tensor<1x2048x32x128xf16>) -> tensor<1x2048x32x128xf16> {
    %cst = arith.constant dense<1.131250e+01> : tensor<1xf16>
    %0 = asuka.trilu diagonal = 1, is_upper = true, shape = [2048, 2048], val = 0xFC00 : f16
    %1 = asuka.permute %arg0, dims = [0, 2, 1, 3] : (tensor<1x2048x32x128xf16>) -> tensor<1x32x2048x128xf16>
    %2 = asuka.permute %arg2, dims = [0, 2, 1, 3] : (tensor<1x2048x32x128xf16>) -> tensor<1x32x2048x128xf16>
    %3 = asuka.permute %arg1, dims = [0, 2, 3, 1] : (tensor<1x2048x32x128xf16>) -> tensor<1x32x128x2048xf16>
    %4 = asuka.dot %1, %3 : (tensor<1x32x2048x128xf16>, tensor<1x32x128x2048xf16>) -> tensor<1x32x2048x2048xf16>
    %5 = asuka.div %4, %cst : (tensor<1x32x2048x2048xf16>, tensor<1xf16>) -> tensor<1x32x2048x2048xf16>
    %6 = asuka.add %5, %0 : (tensor<1x32x2048x2048xf16>, tensor<2048x2048xf16>) -> tensor<1x32x2048x2048xf16>
    %7 = asuka.convert %6, type = f32 : (tensor<1x32x2048x2048xf16>) -> tensor<1x32x2048x2048xf32>
    %8 = asuka.exp %7 : (tensor<1x32x2048x2048xf32>) -> tensor<1x32x2048x2048xf32>
    %9 = asuka.reduce(%8), dim = -1, op =  ADD, keep_dim = true : (tensor<1x32x2048x2048xf32>) -> tensor<1x32x2048x1xf32>
    %10 = asuka.div %8, %9 : (tensor<1x32x2048x2048xf32>, tensor<1x32x2048x1xf32>) -> tensor<1x32x2048x2048xf32>
    %11 = asuka.convert %10, type = f16 : (tensor<1x32x2048x2048xf32>) -> tensor<1x32x2048x2048xf16>
    %12 = asuka.dot %11, %2 : (tensor<1x32x2048x2048xf16>, tensor<1x32x2048x128xf16>) -> tensor<1x32x2048x128xf16>
    %13 = asuka.permute %12, dims = [0, 2, 1, 3] : (tensor<1x32x2048x128xf16>) -> tensor<1x2048x32x128xf16>
    return %13 : tensor<1x2048x32x128xf16>
  }
  asuka.kernel @Attn_p0(%arg0: tensor<1x2048x32x128xf16>, %arg1: tensor<1x2048x32x128xf16>, %arg2: tensor<1x2048x32x128xf16>, %arg3: tensor<1x32x2048x1xf32>) -> tensor<1x2048x32x128xf16> {
    %cst = arith.constant dense<1.131250e+01> : tensor<1xf16>
    %0 = asuka.trilu diagonal = 1, is_upper = true, shape = [2048, 2048], val = 0xFC00 : f16
    %1 = asuka.permute %arg0, dims = [0, 2, 1, 3] : (tensor<1x2048x32x128xf16>) -> tensor<1x32x2048x128xf16>
    %2 = asuka.permute %arg1, dims = [0, 2, 1, 3] : (tensor<1x2048x32x128xf16>) -> tensor<1x32x2048x128xf16>
    %3 = asuka.permute %arg2, dims = [0, 2, 3, 1] : (tensor<1x2048x32x128xf16>) -> tensor<1x32x128x2048xf16>
    %4 = asuka.dot %1, %3 : (tensor<1x32x2048x128xf16>, tensor<1x32x128x2048xf16>) -> tensor<1x32x2048x2048xf16>
    %5 = asuka.div %4, %cst : (tensor<1x32x2048x2048xf16>, tensor<1xf16>) -> tensor<1x32x2048x2048xf16>
    %6 = asuka.add %5, %0 : (tensor<1x32x2048x2048xf16>, tensor<2048x2048xf16>) -> tensor<1x32x2048x2048xf16>
    %7 = asuka.convert %6, type = f32 : (tensor<1x32x2048x2048xf16>) -> tensor<1x32x2048x2048xf32>
    %8 = asuka.exp %7 : (tensor<1x32x2048x2048xf32>) -> tensor<1x32x2048x2048xf32>
    %9 = asuka.div %8, %arg3 : (tensor<1x32x2048x2048xf32>, tensor<1x32x2048x1xf32>) -> tensor<1x32x2048x2048xf32>
    %10 = asuka.convert %9, type = f16 : (tensor<1x32x2048x2048xf32>) -> tensor<1x32x2048x2048xf16>
    %11 = asuka.dot %10, %2 : (tensor<1x32x2048x2048xf16>, tensor<1x32x2048x128xf16>) -> tensor<1x32x2048x128xf16>
    %12 = asuka.permute %11, dims = [0, 2, 1, 3] : (tensor<1x32x2048x128xf16>) -> tensor<1x2048x32x128xf16>
    asuka.return %12 : tensor<1x2048x32x128xf16>
  }
  asuka.kernel @Attn_p1(%arg0: tensor<1x2048x32x128xf16>, %arg1: tensor<1x2048x32x128xf16>) -> tensor<1x32x2048x1xf32> {
    %cst = arith.constant dense<1.131250e+01> : tensor<1xf16>
    %0 = asuka.trilu diagonal = 1, is_upper = true, shape = [2048, 2048], val = 0xFC00 : f16
    %1 = asuka.permute %arg0, dims = [0, 2, 1, 3] : (tensor<1x2048x32x128xf16>) -> tensor<1x32x2048x128xf16>
    %2 = asuka.permute %arg1, dims = [0, 2, 3, 1] : (tensor<1x2048x32x128xf16>) -> tensor<1x32x128x2048xf16>
    %3 = asuka.dot %1, %2 : (tensor<1x32x2048x128xf16>, tensor<1x32x128x2048xf16>) -> tensor<1x32x2048x2048xf16>
    %4 = asuka.div %3, %cst : (tensor<1x32x2048x2048xf16>, tensor<1xf16>) -> tensor<1x32x2048x2048xf16>
    %5 = asuka.add %4, %0 : (tensor<1x32x2048x2048xf16>, tensor<2048x2048xf16>) -> tensor<1x32x2048x2048xf16>
    %6 = asuka.convert %5, type = f32 : (tensor<1x32x2048x2048xf16>) -> tensor<1x32x2048x2048xf32>
    %7 = asuka.exp %6 : (tensor<1x32x2048x2048xf32>) -> tensor<1x32x2048x2048xf32>
    %8 = asuka.reduce(%7), dim = -1, op =  ADD, keep_dim = true : (tensor<1x32x2048x2048xf32>) -> tensor<1x32x2048x1xf32>
    asuka.return %8 : tensor<1x32x2048x1xf32>
  }
  asuka.kernel @Attn_p2(%arg0: tensor<1x2048x32x128xf16>, %arg1: tensor<1x2048x32x128xf16>, %arg2: tensor<1x2048x32x128xf16>) -> tensor<1x2048x32x128xf16> {
    %cst = arith.constant dense<1.131250e+01> : tensor<1xf16>
    %0 = asuka.trilu diagonal = 1, is_upper = true, shape = [2048, 2048], val = 0xFC00 : f16
    %1 = asuka.permute %arg0, dims = [0, 2, 1, 3] : (tensor<1x2048x32x128xf16>) -> tensor<1x32x2048x128xf16>
    %2 = asuka.permute %arg1, dims = [0, 2, 1, 3] : (tensor<1x2048x32x128xf16>) -> tensor<1x32x2048x128xf16>
    %3 = asuka.permute %arg2, dims = [0, 2, 3, 1] : (tensor<1x2048x32x128xf16>) -> tensor<1x32x128x2048xf16>
    %4 = asuka.dot %1, %3 : (tensor<1x32x2048x128xf16>, tensor<1x32x128x2048xf16>) -> tensor<1x32x2048x2048xf16>
    %5 = asuka.div %4, %cst : (tensor<1x32x2048x2048xf16>, tensor<1xf16>) -> tensor<1x32x2048x2048xf16>
    %6 = asuka.add %5, %0 : (tensor<1x32x2048x2048xf16>, tensor<2048x2048xf16>) -> tensor<1x32x2048x2048xf16>
    %7 = asuka.convert %6, type = f32 : (tensor<1x32x2048x2048xf16>) -> tensor<1x32x2048x2048xf32>
    %8 = asuka.exp %7 : (tensor<1x32x2048x2048xf32>) -> tensor<1x32x2048x2048xf32>
    %9 = asuka.reduce(%8), dim = -1, op =  ADD, keep_dim = true : (tensor<1x32x2048x2048xf32>) -> tensor<1x32x2048x1xf32>
    %10 = asuka.div %8, %9 : (tensor<1x32x2048x2048xf32>, tensor<1x32x2048x1xf32>) -> tensor<1x32x2048x2048xf32>
    %11 = asuka.convert %10, type = f16 : (tensor<1x32x2048x2048xf32>) -> tensor<1x32x2048x2048xf16>
    %12 = asuka.dot %11, %2 : (tensor<1x32x2048x2048xf16>, tensor<1x32x2048x128xf16>) -> tensor<1x32x2048x128xf16>
    %13 = asuka.permute %12, dims = [0, 2, 1, 3] : (tensor<1x32x2048x128xf16>) -> tensor<1x2048x32x128xf16>
    asuka.return %13 : tensor<1x2048x32x128xf16>
  }
  asuka.kernel @Attn_p3(%arg0: tensor<1x2048x32x128xf16>, %arg1: tensor<1x2048x32x128xf16>, %arg2: tensor<1x2048x32x128xf16>) -> (tensor<1x32x2048x1xf32>, tensor<1x2048x32x128xf16>) {
    %cst = arith.constant dense<1.131250e+01> : tensor<1xf16>
    %0 = asuka.trilu diagonal = 1, is_upper = true, shape = [2048, 2048], val = 0xFC00 : f16
    %1 = asuka.permute %arg0, dims = [0, 2, 1, 3] : (tensor<1x2048x32x128xf16>) -> tensor<1x32x2048x128xf16>
    %2 = asuka.permute %arg1, dims = [0, 2, 1, 3] : (tensor<1x2048x32x128xf16>) -> tensor<1x32x2048x128xf16>
    %3 = asuka.permute %arg2, dims = [0, 2, 3, 1] : (tensor<1x2048x32x128xf16>) -> tensor<1x32x128x2048xf16>
    %4 = asuka.dot %1, %3 : (tensor<1x32x2048x128xf16>, tensor<1x32x128x2048xf16>) -> tensor<1x32x2048x2048xf16>
    %5 = asuka.div %4, %cst : (tensor<1x32x2048x2048xf16>, tensor<1xf16>) -> tensor<1x32x2048x2048xf16>
    %6 = asuka.add %5, %0 : (tensor<1x32x2048x2048xf16>, tensor<2048x2048xf16>) -> tensor<1x32x2048x2048xf16>
    %7 = asuka.convert %6, type = f32 : (tensor<1x32x2048x2048xf16>) -> tensor<1x32x2048x2048xf32>
    %8 = asuka.exp %7 : (tensor<1x32x2048x2048xf32>) -> tensor<1x32x2048x2048xf32>
    %9 = asuka.reduce(%8), dim = -1, op =  ADD, keep_dim = true : (tensor<1x32x2048x2048xf32>) -> tensor<1x32x2048x1xf32>
    %10 = asuka.div %8, %9 : (tensor<1x32x2048x2048xf32>, tensor<1x32x2048x1xf32>) -> tensor<1x32x2048x2048xf32>
    %11 = asuka.convert %10, type = f16 : (tensor<1x32x2048x2048xf32>) -> tensor<1x32x2048x2048xf16>
    %12 = asuka.dot %11, %2 : (tensor<1x32x2048x2048xf16>, tensor<1x32x2048x128xf16>) -> tensor<1x32x2048x128xf16>
    %13 = asuka.permute %12, dims = [0, 2, 1, 3] : (tensor<1x32x2048x128xf16>) -> tensor<1x2048x32x128xf16>
    asuka.return %9, %13 : tensor<1x32x2048x1xf32>, tensor<1x2048x32x128xf16>
  }
}
optimize Attn_p0
optimize Attn_p1
optimize Attn_p2
optimize Attn_p3
tuning time: 2.16986083984375 sec
Skip op: func.func
path: /tmp/tmpb8tddh2e.py
profiling...
out_str='[Attn_p0] avg_ms: 0.6490306854248047\n[Attn_p1] avg_ms: 0.4107682406902313\n[Attn_p2] avg_ms: 0.6485010981559753\n[Attn_p3] avg_ms: 0.6475639939308167\n'
[Attn_p0] avg_ms: 0.6490306854248047
[Attn_p1] avg_ms: 0.4107682406902313
[Attn_p2] avg_ms: 0.6485010981559753
[Attn_p3] avg_ms: 0.6475639939308167
best_kernel:

Attn_p3
best_time=0.6475639939308167
import math
import torch
import torch.nn as nn
import torch.nn.functional as F
import triton
import triton.language as tl
from typing import Callable, Any, Optional, Tuple

def bench_Attn_p3():
  dev = torch.cuda.current_device()
  rand_arg_0 = torch.randn(1, 2048, 32, 128, dtype=torch.float16, device=dev)
  rand_arg_1 = torch.randn(1, 2048, 32, 128, dtype=torch.float16, device=dev)
  rand_arg_2 = torch.randn(1, 2048, 32, 128, dtype=torch.float16, device=dev)
  avg_ms = triton.testing.do_bench(lambda: Attn_p3(rand_arg_0, rand_arg_1, rand_arg_2))
  print('[Attn_p3] avg_ms:', avg_ms)

def Attn_p3(arg0: torch.Tensor, arg1: torch.Tensor, arg2: torch.Tensor) -> Tuple[torch.Tensor, torch.Tensor]:
  dev = arg0.device
  autotune_key = torch.cuda.get_device_capability(dev)[0]
  tensor_0 = arg0
  tensor_1 = arg1
  tensor_2 = arg2
  empty_ptr_3 = torch.empty(1, 32, 2048, 1, dtype=torch.float32, device=dev)
  empty_ptr_4 = torch.empty(1, 2048, 32, 128, dtype=torch.float16, device=dev)
  grid = (1, 16, 32)
  Attn_p3_kernel[grid](tensor_0, tensor_1, tensor_2, empty_ptr_3, empty_ptr_4, autotune_key)
  tensor_5 = empty_ptr_3
  tensor_6 = empty_ptr_4
  return tensor_5, tensor_6

@triton.autotune(configs=[
  triton.Config({}, num_warps=4),
  triton.Config({}, num_warps=8),
], key=['autotune_key'])
@triton.jit
def Attn_p3_kernel(
  arg_0,
  arg_1,
  arg_2,
  arg_3,
  arg_4,
  autotune_key,
):
  pid_5 = tl.program_id(0)
  pid_6 = tl.program_id(1)
  pid_7 = tl.program_id(2)
  const_8 = 1.275311e-01
  const_9 = float('-inf')
  const_10 = 0.000000e+00
  const_11 = 0
  const_12 = 2048
  const_13 = 1
  const_14 = 4096
  const_15 = 128
  mul_16 = pid_6 * const_15
  mul_17 = mul_16 * const_14
  mul_18 = pid_7 * const_15
  add_19 = mul_17 + mul_18
  block_ptr_20 = tl.make_block_ptr(
    base=arg_0 + add_19,
    shape=(128, 128,),
    strides=(4096, 1,),
    offsets=(0, 0,),
    block_shape=(128, 128,),
    order=(1, 0,),
  )
  block_load_21 = tl.load(block_ptr_20)
  mul_22 = pid_7 * const_12
  add_23 = mul_16 + mul_22
  block_ptr_24 = tl.make_block_ptr(
    base=arg_3 + add_23,
    shape=(128, 1,),
    strides=(1, 1,),
    offsets=(0, 0,),
    block_shape=(128, 1,),
    order=(1, 0,),
  )
  block_ptr_25 = tl.make_block_ptr(
    base=arg_4 + add_19,
    shape=(128, 128,),
    strides=(4096, 1,),
    offsets=(0, 0,),
    block_shape=(128, 128,),
    order=(1, 0,),
  )
  converted_26 = const_8
  mul_27 = block_load_21 * converted_26
  mul_27 = mul_27.to(tl.float16)
  zero_28 = tl.zeros([128, 128], dtype=tl.float32)
  zero_29 = tl.zeros([128, 1], dtype=tl.float32)
  add_30 = mul_16 + const_15
  block_ptr_31 = tl.make_block_ptr(
    base=arg_2 + mul_18,
    shape=(128, 2048,),
    strides=(1, 4096,),
    offsets=(0, 0,),
    block_shape=(128, 128,),
    order=(0, 1,),
  )
  block_ptr_32 = tl.make_block_ptr(
    base=arg_1 + mul_18,
    shape=(2048, 128,),
    strides=(4096, 1,),
    offsets=(0, 0,),
    block_shape=(128, 128,),
    order=(1, 0,),
  )
  for i_33 in range(const_11, add_30, const_15):
    block_load_34 = tl.load(block_ptr_31)
    block_load_35 = tl.load(block_ptr_32)
    dot_36 = tl.dot(mul_27, block_load_34)
    where_37 = tl.zeros([128, 128], dtype=tl.float32)
    where_37 = tl.where(mul_16 + tl.arange(0, 128)[:, None] >= i_33 + tl.arange(0, 128)[None, :], where_37, float('-inf'))
    add_38 = dot_36 + where_37
    exp2_39 = tl.math.exp2(add_38)
    reduce_sum_40 = tl.sum(exp2_39, axis=1, keep_dims=True).to(tl.float32)
    reduce_sum_40 += zero_29
    converted_41 = exp2_39.to(tl.float16)
    dot_42 = tl.dot(converted_41, block_load_35)
    add_43 = zero_28 + dot_42
    block_advance_44 = tl.advance(block_ptr_31, (0, 128,))
    block_advance_45 = tl.advance(block_ptr_32, (128, 0,))
    block_ptr_31 = block_advance_44
    block_ptr_32 = block_advance_45
    zero_28 = add_43
    zero_29 = reduce_sum_40
  div_46 = zero_28 / zero_29
  converted_47 = div_46.to(tl.float16)
  block_store_48 = tl.store(block_ptr_24, zero_29)
  block_store_49 = tl.store(block_ptr_25, converted_47)

def Attn(arg_0, arg_1, arg_2):
  k0_out_0, k0_out_1 = Attn_p3(arg_0, arg_2, arg_1)
  return k0_out_1

write code to /tmp/tmpn8dkcrse.py
weight_zoo_path='/data2/ldz/FlashTensor-AE/weight_zoo.json'
hf_config.num_hidden_layers=32
data_path='/data2/ldz/FlashTensor-AE/vcsum.jsonl'
token_ids.shape=torch.Size([1, 2048])
token_ids.grad=None
using safe tensor: files={'model-00001-of-00002.safetensors', 'model-00002-of-00002.safetensors'}
  0%|          | 0/2 [00:00<?, ?it/s]100%|██████████| 2/2 [00:00<00:00, 177.05it/s]
  0%|          | 0/32 [00:00<?, ?it/s] 22%|██▏       | 7/32 [00:00<00:00, 68.96it/s] 47%|████▋     | 15/32 [00:00<00:00, 70.26it/s] 72%|███████▏  | 23/32 [00:00<00:00, 70.32it/s] 97%|█████████▋| 31/32 [00:00<00:00, 69.74it/s]100%|██████████| 32/32 [00:00<00:00, 69.76it/s]
warmup start
warmup done
[our] avg 415.2745 ms, min 411.8946 ms, max 417.7728 ms (50 runs, 50 warmups, profiled)
