model='gemma2' system='our' seqlen=2048
input_names=['q', 'k', 'v']
output_names=['out']
check=False
graph main_graph (
  %q[FLOAT16, 1x2048x32x128]
  %k[FLOAT16, 1x2048x32x128]
  %v[FLOAT16, 1x2048x32x128]
) {
  %/Constant_output_0 = Constant[value = <Tensor>]()
  %/Constant_1_output_0 = Constant[value = <Scalar Tensor []>]()
  %/Trilu_output_0 = Trilu[upper = 1](%/Constant_output_0, %/Constant_1_output_0)
  %/Transpose_output_0 = Transpose[perm = [0, 2, 1, 3]](%q)
  %/Transpose_1_output_0 = Transpose[perm = [0, 2, 1, 3]](%v)
  %/Transpose_2_output_0 = Transpose[perm = [0, 2, 3, 1]](%k)
  %/MatMul_output_0 = MatMul(%/Transpose_output_0, %/Transpose_2_output_0)
  %/Constant_2_output_0 = Constant[value = <Scalar Tensor []>]()
  %/Div_output_0 = Div(%/MatMul_output_0, %/Constant_2_output_0)
  %/Constant_3_output_0 = Constant[value = <Scalar Tensor []>]()
  %/Div_1_output_0 = Div(%/Div_output_0, %/Constant_3_output_0)
  %/Tanh_output_0 = Tanh(%/Div_1_output_0)
  %/Constant_4_output_0 = Constant[value = <Scalar Tensor []>]()
  %/Mul_output_0 = Mul(%/Tanh_output_0, %/Constant_4_output_0)
  %/Add_output_0 = Add(%/Mul_output_0, %/Trilu_output_0)
  %/Cast_output_0 = Cast[to = 1](%/Add_output_0)
  %/Softmax_output_0 = Softmax[axis = -1](%/Cast_output_0)
  %/Cast_1_output_0 = Cast[to = 10](%/Softmax_output_0)
  %/MatMul_1_output_0 = MatMul(%/Cast_1_output_0, %/Transpose_1_output_0)
  %/Transpose_3_output_0 = Transpose[perm = [0, 2, 1, 3]](%/MatMul_1_output_0)
  %/Constant_5_output_0 = Constant[value = <Tensor>]()
  %out = Reshape[allowzero = 0](%/Transpose_3_output_0, %/Constant_5_output_0)
  return %out
}
/data2/ldz/FlashTensor-AE/3rd/asuka/.py-build-cmake_cache/cp310-cp310-linux_x86_64/editable/asuka/translate.py:217: UserWarning: The given NumPy array is not writable, and PyTorch does not support non-writable tensors. This means writing to this tensor will result in undefined behavior. You may want to copy the array to protect its data or make it writable before converting it to a tensor. This type of warning will be suppressed for the rest of this program. (Triggered internally at ../torch/csrc/utils/tensor_numpy.cpp:206.)
  operand_torch = torch.from_numpy(operand)
module {
  func.func @Gemma2(%arg0: tensor<1x2048x32x128xf16>, %arg1: tensor<1x2048x32x128xf16>, %arg2: tensor<1x2048x32x128xf16>) -> tensor<1x2048x32x128xf16> {
    %0 = asuka.trilu diagonal = 1, is_upper = true, shape = [2048, 2048], val = 0xFC00 : f16
    %1 = asuka.permute %arg0, dims = [0, 2, 1, 3] : (tensor<1x2048x32x128xf16>) -> tensor<1x32x2048x128xf16>
    %2 = asuka.permute %arg2, dims = [0, 2, 1, 3] : (tensor<1x2048x32x128xf16>) -> tensor<1x32x2048x128xf16>
    %3 = asuka.permute %arg1, dims = [0, 2, 3, 1] : (tensor<1x2048x32x128xf16>) -> tensor<1x32x128x2048xf16>
    %4 = asuka.dot %1, %3 : (tensor<1x32x2048x128xf16>, tensor<1x32x128x2048xf16>) -> tensor<1x32x2048x2048xf16>
    %cst = arith.constant dense<1.131250e+01> : tensor<1xf16>
    %5 = asuka.div %4, %cst : (tensor<1x32x2048x2048xf16>, tensor<1xf16>) -> tensor<1x32x2048x2048xf16>
    %cst_0 = arith.constant dense<5.000000e+01> : tensor<1xf16>
    %6 = asuka.div %5, %cst_0 : (tensor<1x32x2048x2048xf16>, tensor<1xf16>) -> tensor<1x32x2048x2048xf16>
    %7 = asuka.tanh %6 : (tensor<1x32x2048x2048xf16>) -> tensor<1x32x2048x2048xf16>
    %cst_1 = arith.constant dense<5.000000e+01> : tensor<1xf16>
    %8 = asuka.mul %7, %cst_1 : (tensor<1x32x2048x2048xf16>, tensor<1xf16>) -> tensor<1x32x2048x2048xf16>
    %9 = asuka.add %8, %0 : (tensor<1x32x2048x2048xf16>, tensor<2048x2048xf16>) -> tensor<1x32x2048x2048xf16>
    %10 = asuka.convert %9, type = f32 : (tensor<1x32x2048x2048xf16>) -> tensor<1x32x2048x2048xf32>
    %11 = asuka.softmax %10, dim = -1 : (tensor<1x32x2048x2048xf32>) -> tensor<1x32x2048x2048xf32>
    %12 = asuka.convert %11, type = f16 : (tensor<1x32x2048x2048xf32>) -> tensor<1x32x2048x2048xf16>
    %13 = asuka.dot %12, %2 : (tensor<1x32x2048x2048xf16>, tensor<1x32x2048x128xf16>) -> tensor<1x32x2048x128xf16>
    %14 = asuka.permute %13, dims = [0, 2, 1, 3] : (tensor<1x32x2048x128xf16>) -> tensor<1x2048x32x128xf16>
    %15 = asuka.reshape %14 : (tensor<1x2048x32x128xf16>) -> tensor<1x2048x32x128xf16>
    return %15 : tensor<1x2048x32x128xf16>
  }
}
idx=0 arith.constant
idx=1 arith.constant
idx=2 asuka.trilu
idx=3 asuka.permute
idx=4 asuka.permute
idx=5 asuka.permute
idx=6 asuka.dot
idx=7 asuka.div
idx=8 asuka.div
idx=9 asuka.tanh
idx=10 asuka.mul
idx=11 asuka.add
idx=12 asuka.convert
idx=13 asuka.exp
idx=14 asuka.reduce
idx=15 asuka.div
idx=16 asuka.convert
idx=17 asuka.dot
idx=18 asuka.permute
len(connected_partitions)=1370
pruning bad partition(provide_output=False):   0%|          | 0/1370 [00:00<?, ?it/s]pruning bad partition(provide_output=False):  14%|█▍        | 191/1370 [00:00<00:00, 1906.79it/s]pruning bad partition(provide_output=False):  28%|██▊       | 387/1370 [00:00<00:00, 1937.77it/s]pruning bad partition(provide_output=False):  43%|████▎     | 590/1370 [00:00<00:00, 1979.76it/s]pruning bad partition(provide_output=False):  58%|█████▊    | 789/1370 [00:00<00:00, 1981.22it/s]pruning bad partition(provide_output=False):  73%|███████▎  | 994/1370 [00:00<00:00, 2003.50it/s]pruning bad partition(provide_output=False):  87%|████████▋ | 1195/1370 [00:00<00:00, 2000.39it/s]pruning bad partition(provide_output=False): 100%|██████████| 1370/1370 [00:00<00:00, 1990.97it/s]
after pruning bad partition: len(connected_partitions)=139
pruning bad para partition:   0%|          | 0/139 [00:00<?, ?it/s]pruning bad para partition:  38%|███▊      | 53/139 [00:00<00:00, 529.32it/s]pruning bad para partition:  80%|███████▉  | 111/139 [00:00<00:00, 557.62it/s]pruning bad para partition: 100%|██████████| 139/139 [00:00<00:00, 560.34it/s]
after pruning bad para partition: len(connected_partitions)=127
max_metric:  134217728.0
tall_and_thin tensors: 7
expand and pruning bad ai partition:   0%|          | 0/127 [00:00<?, ?it/s]expand and pruning bad ai partition:  11%|█         | 14/127 [00:00<00:00, 128.70it/s]expand and pruning bad ai partition:  21%|██▏       | 27/127 [00:01<00:07, 14.01it/s] expand and pruning bad ai partition:  26%|██▌       | 33/127 [00:04<00:16,  5.74it/s]expand and pruning bad ai partition:  29%|██▉       | 37/127 [00:04<00:14,  6.29it/s]expand and pruning bad ai partition:  44%|████▍     | 56/127 [00:04<00:04, 14.44it/s]expand and pruning bad ai partition:  54%|█████▍    | 69/127 [00:04<00:02, 21.24it/s]expand and pruning bad ai partition:  65%|██████▌   | 83/127 [00:05<00:01, 30.46it/s]expand and pruning bad ai partition:  83%|████████▎ | 106/127 [00:05<00:00, 50.45it/s]expand and pruning bad ai partition:  95%|█████████▌| 121/127 [00:05<00:00, 59.16it/s]expand and pruning bad ai partition: 100%|██████████| 127/127 [00:05<00:00, 23.89it/s]
after expand and pruning bad ai partition: len(connected_partitions)=16
pruning bad partition(provide_output=True):   0%|          | 0/16 [00:00<?, ?it/s]pruning bad partition(provide_output=True): 100%|██████████| 16/16 [00:00<00:00, 1807.79it/s]
after pruning bad partition(provide_output=True): len(connected_partitions)=4
module {
  func.func @Gemma2(%arg0: tensor<1x2048x32x128xf16>, %arg1: tensor<1x2048x32x128xf16>, %arg2: tensor<1x2048x32x128xf16>) -> tensor<1x2048x32x128xf16> {
    %cst = arith.constant dense<5.000000e+01> : tensor<1xf16>
    %cst_0 = arith.constant dense<1.131250e+01> : tensor<1xf16>
    %0 = asuka.trilu diagonal = 1, is_upper = true, shape = [2048, 2048], val = 0xFC00 : f16
    %1 = asuka.permute %arg0, dims = [0, 2, 1, 3] : (tensor<1x2048x32x128xf16>) -> tensor<1x32x2048x128xf16>
    %2 = asuka.permute %arg2, dims = [0, 2, 1, 3] : (tensor<1x2048x32x128xf16>) -> tensor<1x32x2048x128xf16>
    %3 = asuka.permute %arg1, dims = [0, 2, 3, 1] : (tensor<1x2048x32x128xf16>) -> tensor<1x32x128x2048xf16>
    %4 = asuka.dot %1, %3 : (tensor<1x32x2048x128xf16>, tensor<1x32x128x2048xf16>) -> tensor<1x32x2048x2048xf16>
    %5 = asuka.div %4, %cst_0 : (tensor<1x32x2048x2048xf16>, tensor<1xf16>) -> tensor<1x32x2048x2048xf16>
    %6 = asuka.div %5, %cst : (tensor<1x32x2048x2048xf16>, tensor<1xf16>) -> tensor<1x32x2048x2048xf16>
    %7 = asuka.tanh %6 : (tensor<1x32x2048x2048xf16>) -> tensor<1x32x2048x2048xf16>
    %8 = asuka.mul %7, %cst : (tensor<1x32x2048x2048xf16>, tensor<1xf16>) -> tensor<1x32x2048x2048xf16>
    %9 = asuka.add %8, %0 : (tensor<1x32x2048x2048xf16>, tensor<2048x2048xf16>) -> tensor<1x32x2048x2048xf16>
    %10 = asuka.convert %9, type = f32 : (tensor<1x32x2048x2048xf16>) -> tensor<1x32x2048x2048xf32>
    %11 = asuka.exp %10 : (tensor<1x32x2048x2048xf32>) -> tensor<1x32x2048x2048xf32>
    %12 = asuka.reduce(%11), dim = -1, op =  ADD, keep_dim = true : (tensor<1x32x2048x2048xf32>) -> tensor<1x32x2048x1xf32>
    %13 = asuka.div %11, %12 : (tensor<1x32x2048x2048xf32>, tensor<1x32x2048x1xf32>) -> tensor<1x32x2048x2048xf32>
    %14 = asuka.convert %13, type = f16 : (tensor<1x32x2048x2048xf32>) -> tensor<1x32x2048x2048xf16>
    %15 = asuka.dot %14, %2 : (tensor<1x32x2048x2048xf16>, tensor<1x32x2048x128xf16>) -> tensor<1x32x2048x128xf16>
    %16 = asuka.permute %15, dims = [0, 2, 1, 3] : (tensor<1x32x2048x128xf16>) -> tensor<1x2048x32x128xf16>
    return %16 : tensor<1x2048x32x128xf16>
  }
  asuka.kernel @Gemma2_p0(%arg0: tensor<1x2048x32x128xf16>, %arg1: tensor<1x2048x32x128xf16>, %arg2: tensor<1x2048x32x128xf16>, %arg3: tensor<1x32x2048x1xf32>) -> tensor<1x2048x32x128xf16> {
    %cst = arith.constant dense<5.000000e+01> : tensor<1xf16>
    %cst_0 = arith.constant dense<1.131250e+01> : tensor<1xf16>
    %0 = asuka.trilu diagonal = 1, is_upper = true, shape = [2048, 2048], val = 0xFC00 : f16
    %1 = asuka.permute %arg0, dims = [0, 2, 1, 3] : (tensor<1x2048x32x128xf16>) -> tensor<1x32x2048x128xf16>
    %2 = asuka.permute %arg1, dims = [0, 2, 1, 3] : (tensor<1x2048x32x128xf16>) -> tensor<1x32x2048x128xf16>
    %3 = asuka.permute %arg2, dims = [0, 2, 3, 1] : (tensor<1x2048x32x128xf16>) -> tensor<1x32x128x2048xf16>
    %4 = asuka.dot %1, %3 : (tensor<1x32x2048x128xf16>, tensor<1x32x128x2048xf16>) -> tensor<1x32x2048x2048xf16>
    %5 = asuka.div %4, %cst_0 : (tensor<1x32x2048x2048xf16>, tensor<1xf16>) -> tensor<1x32x2048x2048xf16>
    %6 = asuka.div %5, %cst : (tensor<1x32x2048x2048xf16>, tensor<1xf16>) -> tensor<1x32x2048x2048xf16>
    %7 = asuka.tanh %6 : (tensor<1x32x2048x2048xf16>) -> tensor<1x32x2048x2048xf16>
    %8 = asuka.mul %7, %cst : (tensor<1x32x2048x2048xf16>, tensor<1xf16>) -> tensor<1x32x2048x2048xf16>
    %9 = asuka.add %8, %0 : (tensor<1x32x2048x2048xf16>, tensor<2048x2048xf16>) -> tensor<1x32x2048x2048xf16>
    %10 = asuka.convert %9, type = f32 : (tensor<1x32x2048x2048xf16>) -> tensor<1x32x2048x2048xf32>
    %11 = asuka.exp %10 : (tensor<1x32x2048x2048xf32>) -> tensor<1x32x2048x2048xf32>
    %12 = asuka.div %11, %arg3 : (tensor<1x32x2048x2048xf32>, tensor<1x32x2048x1xf32>) -> tensor<1x32x2048x2048xf32>
    %13 = asuka.convert %12, type = f16 : (tensor<1x32x2048x2048xf32>) -> tensor<1x32x2048x2048xf16>
    %14 = asuka.dot %13, %2 : (tensor<1x32x2048x2048xf16>, tensor<1x32x2048x128xf16>) -> tensor<1x32x2048x128xf16>
    %15 = asuka.permute %14, dims = [0, 2, 1, 3] : (tensor<1x32x2048x128xf16>) -> tensor<1x2048x32x128xf16>
    asuka.return %15 : tensor<1x2048x32x128xf16>
  }
  asuka.kernel @Gemma2_p1(%arg0: tensor<1x2048x32x128xf16>, %arg1: tensor<1x2048x32x128xf16>) -> tensor<1x32x2048x1xf32> {
    %cst = arith.constant dense<5.000000e+01> : tensor<1xf16>
    %cst_0 = arith.constant dense<1.131250e+01> : tensor<1xf16>
    %0 = asuka.trilu diagonal = 1, is_upper = true, shape = [2048, 2048], val = 0xFC00 : f16
    %1 = asuka.permute %arg0, dims = [0, 2, 1, 3] : (tensor<1x2048x32x128xf16>) -> tensor<1x32x2048x128xf16>
    %2 = asuka.permute %arg1, dims = [0, 2, 3, 1] : (tensor<1x2048x32x128xf16>) -> tensor<1x32x128x2048xf16>
    %3 = asuka.dot %1, %2 : (tensor<1x32x2048x128xf16>, tensor<1x32x128x2048xf16>) -> tensor<1x32x2048x2048xf16>
    %4 = asuka.div %3, %cst_0 : (tensor<1x32x2048x2048xf16>, tensor<1xf16>) -> tensor<1x32x2048x2048xf16>
    %5 = asuka.div %4, %cst : (tensor<1x32x2048x2048xf16>, tensor<1xf16>) -> tensor<1x32x2048x2048xf16>
    %6 = asuka.tanh %5 : (tensor<1x32x2048x2048xf16>) -> tensor<1x32x2048x2048xf16>
    %7 = asuka.mul %6, %cst : (tensor<1x32x2048x2048xf16>, tensor<1xf16>) -> tensor<1x32x2048x2048xf16>
    %8 = asuka.add %7, %0 : (tensor<1x32x2048x2048xf16>, tensor<2048x2048xf16>) -> tensor<1x32x2048x2048xf16>
    %9 = asuka.convert %8, type = f32 : (tensor<1x32x2048x2048xf16>) -> tensor<1x32x2048x2048xf32>
    %10 = asuka.exp %9 : (tensor<1x32x2048x2048xf32>) -> tensor<1x32x2048x2048xf32>
    %11 = asuka.reduce(%10), dim = -1, op =  ADD, keep_dim = true : (tensor<1x32x2048x2048xf32>) -> tensor<1x32x2048x1xf32>
    asuka.return %11 : tensor<1x32x2048x1xf32>
  }
  asuka.kernel @Gemma2_p2(%arg0: tensor<1x2048x32x128xf16>, %arg1: tensor<1x2048x32x128xf16>, %arg2: tensor<1x2048x32x128xf16>) -> tensor<1x2048x32x128xf16> {
    %cst = arith.constant dense<5.000000e+01> : tensor<1xf16>
    %cst_0 = arith.constant dense<1.131250e+01> : tensor<1xf16>
    %0 = asuka.trilu diagonal = 1, is_upper = true, shape = [2048, 2048], val = 0xFC00 : f16
    %1 = asuka.permute %arg0, dims = [0, 2, 1, 3] : (tensor<1x2048x32x128xf16>) -> tensor<1x32x2048x128xf16>
    %2 = asuka.permute %arg1, dims = [0, 2, 1, 3] : (tensor<1x2048x32x128xf16>) -> tensor<1x32x2048x128xf16>
    %3 = asuka.permute %arg2, dims = [0, 2, 3, 1] : (tensor<1x2048x32x128xf16>) -> tensor<1x32x128x2048xf16>
    %4 = asuka.dot %1, %3 : (tensor<1x32x2048x128xf16>, tensor<1x32x128x2048xf16>) -> tensor<1x32x2048x2048xf16>
    %5 = asuka.div %4, %cst_0 : (tensor<1x32x2048x2048xf16>, tensor<1xf16>) -> tensor<1x32x2048x2048xf16>
    %6 = asuka.div %5, %cst : (tensor<1x32x2048x2048xf16>, tensor<1xf16>) -> tensor<1x32x2048x2048xf16>
    %7 = asuka.tanh %6 : (tensor<1x32x2048x2048xf16>) -> tensor<1x32x2048x2048xf16>
    %8 = asuka.mul %7, %cst : (tensor<1x32x2048x2048xf16>, tensor<1xf16>) -> tensor<1x32x2048x2048xf16>
    %9 = asuka.add %8, %0 : (tensor<1x32x2048x2048xf16>, tensor<2048x2048xf16>) -> tensor<1x32x2048x2048xf16>
    %10 = asuka.convert %9, type = f32 : (tensor<1x32x2048x2048xf16>) -> tensor<1x32x2048x2048xf32>
    %11 = asuka.exp %10 : (tensor<1x32x2048x2048xf32>) -> tensor<1x32x2048x2048xf32>
    %12 = asuka.reduce(%11), dim = -1, op =  ADD, keep_dim = true : (tensor<1x32x2048x2048xf32>) -> tensor<1x32x2048x1xf32>
    %13 = asuka.div %11, %12 : (tensor<1x32x2048x2048xf32>, tensor<1x32x2048x1xf32>) -> tensor<1x32x2048x2048xf32>
    %14 = asuka.convert %13, type = f16 : (tensor<1x32x2048x2048xf32>) -> tensor<1x32x2048x2048xf16>
    %15 = asuka.dot %14, %2 : (tensor<1x32x2048x2048xf16>, tensor<1x32x2048x128xf16>) -> tensor<1x32x2048x128xf16>
    %16 = asuka.permute %15, dims = [0, 2, 1, 3] : (tensor<1x32x2048x128xf16>) -> tensor<1x2048x32x128xf16>
    asuka.return %16 : tensor<1x2048x32x128xf16>
  }
  asuka.kernel @Gemma2_p3(%arg0: tensor<1x2048x32x128xf16>, %arg1: tensor<1x2048x32x128xf16>, %arg2: tensor<1x2048x32x128xf16>) -> (tensor<1x32x2048x1xf32>, tensor<1x2048x32x128xf16>) {
    %cst = arith.constant dense<5.000000e+01> : tensor<1xf16>
    %cst_0 = arith.constant dense<1.131250e+01> : tensor<1xf16>
    %0 = asuka.trilu diagonal = 1, is_upper = true, shape = [2048, 2048], val = 0xFC00 : f16
    %1 = asuka.permute %arg0, dims = [0, 2, 1, 3] : (tensor<1x2048x32x128xf16>) -> tensor<1x32x2048x128xf16>
    %2 = asuka.permute %arg1, dims = [0, 2, 1, 3] : (tensor<1x2048x32x128xf16>) -> tensor<1x32x2048x128xf16>
    %3 = asuka.permute %arg2, dims = [0, 2, 3, 1] : (tensor<1x2048x32x128xf16>) -> tensor<1x32x128x2048xf16>
    %4 = asuka.dot %1, %3 : (tensor<1x32x2048x128xf16>, tensor<1x32x128x2048xf16>) -> tensor<1x32x2048x2048xf16>
    %5 = asuka.div %4, %cst_0 : (tensor<1x32x2048x2048xf16>, tensor<1xf16>) -> tensor<1x32x2048x2048xf16>
    %6 = asuka.div %5, %cst : (tensor<1x32x2048x2048xf16>, tensor<1xf16>) -> tensor<1x32x2048x2048xf16>
    %7 = asuka.tanh %6 : (tensor<1x32x2048x2048xf16>) -> tensor<1x32x2048x2048xf16>
    %8 = asuka.mul %7, %cst : (tensor<1x32x2048x2048xf16>, tensor<1xf16>) -> tensor<1x32x2048x2048xf16>
    %9 = asuka.add %8, %0 : (tensor<1x32x2048x2048xf16>, tensor<2048x2048xf16>) -> tensor<1x32x2048x2048xf16>
    %10 = asuka.convert %9, type = f32 : (tensor<1x32x2048x2048xf16>) -> tensor<1x32x2048x2048xf32>
    %11 = asuka.exp %10 : (tensor<1x32x2048x2048xf32>) -> tensor<1x32x2048x2048xf32>
    %12 = asuka.reduce(%11), dim = -1, op =  ADD, keep_dim = true : (tensor<1x32x2048x2048xf32>) -> tensor<1x32x2048x1xf32>
    %13 = asuka.div %11, %12 : (tensor<1x32x2048x2048xf32>, tensor<1x32x2048x1xf32>) -> tensor<1x32x2048x2048xf32>
    %14 = asuka.convert %13, type = f16 : (tensor<1x32x2048x2048xf32>) -> tensor<1x32x2048x2048xf16>
    %15 = asuka.dot %14, %2 : (tensor<1x32x2048x2048xf16>, tensor<1x32x2048x128xf16>) -> tensor<1x32x2048x128xf16>
    %16 = asuka.permute %15, dims = [0, 2, 1, 3] : (tensor<1x32x2048x128xf16>) -> tensor<1x2048x32x128xf16>
    asuka.return %12, %16 : tensor<1x32x2048x1xf32>, tensor<1x2048x32x128xf16>
  }
}
optimize Gemma2_p0
optimize Gemma2_p1
optimize Gemma2_p2
optimize Gemma2_p3
tuning time: 7.408415079116821 sec
Skip op: func.func
path: /tmp/tmpkjxfzlps.py
profiling...
out_str='[Gemma2_p0] avg_ms: 0.6643071174621582\n[Gemma2_p1] avg_ms: 0.4276016056537628\n[Gemma2_p2] avg_ms: 0.6263940334320068\n[Gemma2_p3] avg_ms: 0.6262139081954956\n'
[Gemma2_p0] avg_ms: 0.6643071174621582
[Gemma2_p1] avg_ms: 0.4276016056537628
[Gemma2_p2] avg_ms: 0.6263940334320068
[Gemma2_p3] avg_ms: 0.6262139081954956
best_kernel:

Gemma2_p3
best_time=0.6262139081954956
import math
import torch
import torch.nn as nn
import torch.nn.functional as F
import triton
import triton.language as tl
from typing import Callable, Any, Optional, Tuple

def bench_Gemma2_p3():
  dev = torch.cuda.current_device()
  rand_arg_0 = torch.randn(1, 2048, 32, 128, dtype=torch.float16, device=dev)
  rand_arg_1 = torch.randn(1, 2048, 32, 128, dtype=torch.float16, device=dev)
  rand_arg_2 = torch.randn(1, 2048, 32, 128, dtype=torch.float16, device=dev)
  avg_ms = triton.testing.do_bench(lambda: Gemma2_p3(rand_arg_0, rand_arg_1, rand_arg_2))
  print('[Gemma2_p3] avg_ms:', avg_ms)

def Gemma2_p3(arg0: torch.Tensor, arg1: torch.Tensor, arg2: torch.Tensor) -> Tuple[torch.Tensor, torch.Tensor]:
  dev = arg0.device
  autotune_key = torch.cuda.get_device_capability(dev)[0]
  tensor_0 = arg0
  tensor_1 = arg1
  tensor_2 = arg2
  empty_ptr_3 = torch.empty(1, 32, 2048, 1, dtype=torch.float32, device=dev)
  empty_ptr_4 = torch.empty(1, 2048, 32, 128, dtype=torch.float16, device=dev)
  grid = (1, 16, 32)
  Gemma2_p3_kernel[grid](tensor_0, tensor_1, tensor_2, empty_ptr_3, empty_ptr_4, autotune_key)
  tensor_5 = empty_ptr_3
  tensor_6 = empty_ptr_4
  return tensor_5, tensor_6

@triton.autotune(configs=[
  triton.Config({}, num_warps=4),
  triton.Config({}, num_warps=8),
], key=['autotune_key'])
@triton.jit
def Gemma2_p3_kernel(
  arg_0,
  arg_1,
  arg_2,
  arg_3,
  arg_4,
  autotune_key,
):
  pid_5 = tl.program_id(0)
  pid_6 = tl.program_id(1)
  pid_7 = tl.program_id(2)
  const_8 = 1.131250e+01
  const_9 = 5.000000e+01
  const_10 = 1.442695e+00
  const_11 = float('-inf')
  const_12 = 0.000000e+00
  const_13 = 0
  const_14 = 2048
  const_15 = 1
  const_16 = 4096
  const_17 = 128
  mul_18 = pid_6 * const_17
  mul_19 = mul_18 * const_16
  mul_20 = pid_7 * const_17
  add_21 = mul_19 + mul_20
  block_ptr_22 = tl.make_block_ptr(
    base=arg_0 + add_21,
    shape=(128, 128,),
    strides=(4096, 1,),
    offsets=(0, 0,),
    block_shape=(128, 128,),
    order=(1, 0,),
  )
  block_load_23 = tl.load(block_ptr_22)
  mul_24 = pid_7 * const_14
  add_25 = mul_18 + mul_24
  block_ptr_26 = tl.make_block_ptr(
    base=arg_3 + add_25,
    shape=(128, 1,),
    strides=(1, 1,),
    offsets=(0, 0,),
    block_shape=(128, 1,),
    order=(1, 0,),
  )
  block_ptr_27 = tl.make_block_ptr(
    base=arg_4 + add_21,
    shape=(128, 128,),
    strides=(4096, 1,),
    offsets=(0, 0,),
    block_shape=(128, 128,),
    order=(1, 0,),
  )
  converted_28 = const_8
  div_29 = block_load_23 / converted_28
  div_29 = div_29.to(tl.float16)
  converted_30 = const_9
  div_31 = div_29 / converted_30
  div_31 = div_31.to(tl.float16)
  zero_32 = tl.zeros([128, 128], dtype=tl.float32)
  zero_33 = tl.zeros([128, 1], dtype=tl.float32)
  add_34 = mul_18 + const_17
  block_ptr_35 = tl.make_block_ptr(
    base=arg_2 + mul_20,
    shape=(128, 2048,),
    strides=(1, 4096,),
    offsets=(0, 0,),
    block_shape=(128, 128,),
    order=(0, 1,),
  )
  block_ptr_36 = tl.make_block_ptr(
    base=arg_1 + mul_20,
    shape=(2048, 128,),
    strides=(4096, 1,),
    offsets=(0, 0,),
    block_shape=(128, 128,),
    order=(1, 0,),
  )
  for i_37 in range(const_13, add_34, const_17):
    block_load_38 = tl.load(block_ptr_35)
    block_load_39 = tl.load(block_ptr_36)
    dot_40 = tl.dot(div_31, block_load_38)
    where_41 = tl.zeros([128, 128], dtype=tl.float32)
    where_41 = tl.where(mul_18 + tl.arange(0, 128)[:, None] >= i_37 + tl.arange(0, 128)[None, :], where_41, float('-inf'))
    tanh_42 = tl.inline_asm_elementwise(
      asm='tanh.approx.f32 $0, $1;',
      constraints=('=r,r'),
      args=[dot_40],
      dtype=(tl.float32,),
      is_pure=True,
      pack=1,
    )
    mul_43 = tanh_42 * const_9
    mul_44 = mul_43 * const_10
    add_45 = mul_44 + where_41
    exp2_46 = tl.math.exp2(add_45)
    reduce_sum_47 = tl.sum(exp2_46, axis=1, keep_dims=True).to(tl.float32)
    reduce_sum_47 += zero_33
    converted_48 = exp2_46.to(tl.float16)
    dot_49 = tl.dot(converted_48, block_load_39)
    add_50 = zero_32 + dot_49
    block_advance_51 = tl.advance(block_ptr_35, (0, 128,))
    block_advance_52 = tl.advance(block_ptr_36, (128, 0,))
    block_ptr_35 = block_advance_51
    block_ptr_36 = block_advance_52
    zero_32 = add_50
    zero_33 = reduce_sum_47
  div_53 = zero_32 / zero_33
  converted_54 = div_53.to(tl.float16)
  block_store_55 = tl.store(block_ptr_26, zero_33)
  block_store_56 = tl.store(block_ptr_27, converted_54)

def Gemma2(arg_0, arg_1, arg_2):
  k0_out_0, k0_out_1 = Gemma2_p3(arg_0, arg_2, arg_1)
  return k0_out_1

write code to /tmp/tmp8csdo60s.py
start_peak_mem_mib=56.125
end_peak_mem_mib=328.375
gflops=34.359738368
mib=328.375
warmup start
warmup done
[our] avg 0.6858 ms, min 0.6757 ms, max 0.7298 ms, 50099.140678528776 gflops/s (10 runs, 100 warmups, profiled)
